weights/mnist_cnn.pth (torch, 243860 bytes, 10 tensors)

conv1.weight f4 [6, 1, 3, 3]
0	0x3ecbb713	0.39788112
1	0x3ebd36e8	0.36955953
2	0xbebfc729	-0.37456635
3	0x3e760aa5	0.24027498
4	0xbd2fbfd3	-0.042907547
5	0xbe10cc7c	-0.14140505
6	0xbe3333d8	-0.17500246
7	0x3e6a0724	0.22854286
8	0x3ea50e63	0.3223754
9	0xbec6e698	-0.38847804
10	0x3e9e1e80	0.30882645
11	0x3eab3ba8	0.33443952
12	0x3e57a038	0.21057212
13	0x3e939de8	0.2883141
14	0x3e8b39cd	0.27192536
15	0x3e3d9991	0.18515612
16	0x3ed188be	0.40924639
17	0xbd977d35	-0.07396928
18	0x3e4b7808	0.19870007
19	0x3e310a17	0.17289005
20	0xbf206e9e	-0.6266879
21	0xbd19b961	-0.037530307
22	0xbf8084e8	-1.004056
23	0xbbaa23c9	-0.005192254
24	0xbf2ebb3a	-0.68254435
25	0x3da3c262	0.0799606
26	0x3e7b32d3	0.24531107
27	0xbdcccc21	-0.09999872
28	0xbe881dc0	-0.26585197
29	0xbf310b8b	-0.6915824
30	0x3eafc162	0.34327227
31	0xbe953b66	-0.2914688
32	0x3e83ab5a	0.25716668
33	0x3e9ade29	0.3024762
34	0x3e8c6b74	0.2742573
35	0x3ee75128	0.45179105
36	0xbe4b1774	-0.19833165
37	0x3e5ef5e6	0.2177349
38	0xbd9379f1	-0.07200993
39	0xbe961154	-0.29310095
40	0x3e4e7686	0.201624
41	0xbe6e65fb	-0.2328109
42	0xbc9054b7	-0.01761852
43	0x3e908633	0.28227386
44	0xbda409b4	-0.08009663
45	0x3e8107de	0.25201315
46	0x3f065170	0.52468014
47	0x3ede7c76	0.4345433
48	0x3e818bf0	0.25302076
49	0xbd9c4452	-0.076302186
50	0xbe3b9451	-0.18318297
51	0xbf168a39	-0.5880466
52	0xbf221c8c	-0.6332481
53	0x3cf7c5c6	0.030245673

conv1.bias f4 [6]
0	0xbd3c14e9	-0.04591838
1	0xbdb49c4c	-0.08818874
2	0x3e460fb1	0.19341923
3	0xbd39bd90	-0.045346797
4	0xbe0c9366	-0.13728103
5	0xbcf2fdb2	-0.029661987

conv2.weight f4 [16, 6, 3, 3]
0	0x3df4c70d	0.119520284
1	0xbd59e350	-0.053195298
2	0x3db6c72c	0.08924708
3	0x3df3e23c	0.11908385
4	0xbbc09730	-0.005877398
5	0xbe1e025c	-0.15430588
6	0x3e3e3e42	0.18578437
7	0xbe237e57	-0.15966164
8	0xbed4a892	-0.4153486
9	0x3e25f26a	0.16205755
10	0x3e74c6b5	0.23903926
11	0xbb6c7087	-0.0036077814
12	0x3e8f52b0	0.27992773
13	0xbe40cc2d	-0.18827887
14	0xbec79d0a	-0.38987
15	0xbe01358e	-0.12618086
16	0xbe902664	-0.2815429
17	0x3c9fbca3	0.019499129
18	0xbe131783	-0.14364438
19	0x3caa76d3	0.020808613
20	0xbe41a8c8	-0.18912041
21	0xbe753b04	-0.23948294
22	0x3d916f67	0.071013264
23	0xbcf18e55	-0.029486815
24	0x3d945301	0.07242394
25	0xbd88dd15	-0.06682793
26	0xbbf76d90	-0.0075509027
27	0xbc0219d6	-0.00794073
28	0xbe54fe1a	-0.20800057
29	0xbda18658	-0.07886952
30	0xbb5f0576	-0.0034030355
31	0xbe66e02e	-0.22546455
32	0x3d8f323c	0.06992003
33	0x3cbeddd3	0.023299133
34	0xbe9449a0	-0.2896242
35	0xbe9a2bc4	-0.30111516
36	0x3e9bf58d	0.30460778
37	0x3cf6d466	0.030130576
38	0xbe949f84	-0.2902795
39	0xbd99cb33	-0.0750946
40	0xbdc300a6	-0.09521608
41	0xbe98fbd5	-0.29879633
42	0xbdbe7a5e	-0.093006834
43	0xbe628b99	-0.22123565
44	0xbddfd41a	-0.10929127
45	0xbee4923f	-0.44642827
46	0x3deba2f2	0.11505689
47	0x3d8d6a47	0.069050364
48	0xbeb07638	-0.34465194
49	0xbe75279a	-0.23940888
50	0xbdb0e862	-0.086380735
51	0x3dc402db	0.09570857
52	0x3e4ea30c	0.20179385
53	0xbe471e0b	-0.19445054
54	0xbed890c4	-0.42297947
55	0xbccc90bb	-0.024971357
56	0xbda18707	-0.078870825
57	0xbf1bae98	-0.60813284
58	0xbdc34c50	-0.0953604
59	0xbd141b75	-0.036158998
60	0xbc098db3	-0.0083956
61	0x3d0d26f9	0.034460995
62	0x3ccb0369	0.0247819
63	0xbf04425e	-0.5166377
64	0xbe123329	-0.14277329
65	0xbed11dff	-0.40843198
66	0xbee50b4c	-0.4473518
67	0xbe35cf44	-0.17754847
68	0x3d457049	0.048202787
69	0x3de33e3f	0.11095857
70	0x3e96b5bc	0.29435527
71	0x3e3a4761	0.18191291
72	0xbe1d8188	-0.15381444
73	0xbca64c3f	-0.020300029
74	0xbdd2a17a	-0.102847055
75	0xbd40ec9c	-0.04710065
76	0xbc8c13fe	-0.017099377
77	0xbda6a8ae	-0.08137642
78	0x3e0ec174	0.13940984
79	0xbb12e25e	-0.0022412757
80	0x3b85c48c	0.004082268
81	0xbf339861	-0.70154387
82	0xbe34d662	-0.17659906
83	0xbed38916	-0.41315526
84	0xbe8b4f46	-0.27208918
85	0x3dcdedf2	0.1005515
86	0x3ea5bc3c	0.32370174
87	0x3ec724d2	0.3889528
88	0x3eaac412	0.33352715
89	0x3c521882	0.012823226
90	0xbecf4ef4	-0.40489924
91	0xbe0e1419	-0.13874854
92	0xbe56d47b	-0.20979492
93	0xbeb6a95b	-0.35676083
94	0xbe942ea0	-0.28941822
95	0xbe2573f6	-0.16157517
96	0x3e32c27a	0.17457
97	0xbd5cf8e8	-0.053948313
98	0x3cbc6c3d	0.02300083
99	0xbd03e7bc	-0.03220342
100	0x3ea26998	0.31721187
101	0x3eea7a3e	0.45796388
102	0xbf006f3d	-0.50169736
103	0x3e3e6bb5	0.18595774
104	0xbdf3b285	-0.11899284
105	0xbe1dba46	-0.15403089
106	0xbe14cf67	-0.14532243
107	0x3ecbbd7e	0.3979301
108	0xbd3a814a	-0.045533456
109	0xbdfee154	-0.12445322
110	0xbe41da09	-0.1893083
111	0xbd7a3eb6	-0.061094962
112	0x3d205535	0.03914376
113	0xbda833d7	-0.08213013
114	0xbe5c49c0	-0.21512508
115	0xbe198203	-0.14991002
116	0xbe240b02	-0.16019824
117	0xbc158bb2	-0.009127544
118	0x3d659b6b	0.05605642
119	0xbe54b991	-0.20773913
120	0xbbfc4593	-0.0076987236
121	0x3c65dd3a	0.014029795
122	0xbca08622	-0.01959521
123	0xbe1b42f5	-0.15162261
124	0xbac87c88	-0.0015295902
125	0xbc030d52	-0.007998781
126	0x3a830f95	0.0009999151
127	0xbdb456d7	-0.08805626
128	0xbdc30e46	-0.09524207
129	0xbd5e856c	-0.05432646
130	0xbd83dc8e	-0.06438552
131	0xbdca4a3c	-0.0987744
132	0x3d287eb0	0.041136444
133	0x3d9b7b6c	0.075919
134	0xbd95c130	-0.07312238
135	0xbb9dfd19	-0.0048214314
136	0x3d31e23d	0.04342865
137	0xbdc8649c	-0.09784815
138	0xbd8ebaba	-0.06969209
139	0x3ce4febb	0.027953496
140	0xbe1d4a55	-0.15360387
141	0xbde91257	-0.11380451
142	0x3cdcc0a8	0.026947334
143	0xbc4f7e47	-0.012664384
144	0xbdaf40ac	-0.08557257
145	0xbe036ea8	-0.12835181
146	0xbde8e8df	-0.11372542
147	0xbe4695c9	-0.19393076
148	0xbda36691	-0.07978547
149	0x3cd20756	0.025638264
150	0xba952106	-0.001137764
151	0x3cb2b48e	0.02181461
152	0xbe2a7418	-0.16645849
153	0xbe2943ed	-0.16529818
154	0xbdbbc2a6	-0.091679856
155	0x3c8014ac	0.015634857
156	0x3d2bc3da	0.041934825
157	0xbd85f6ed	-0.06541238
158	0xbc59d60b	-0.013295661
159	0xbe1a3a4e	-0.15061304
160	0xbdd86856	-0.105667755
161	0x3dc0e954	0.09419504
162	0xbd1724cd	-0.03690033
163	0x3c6fc58d	0.014634502
164	0xbd453879	-0.04814956
165	0x3e756408	0.2396394
166	0x3e34674b	0.17617528
167	0x3ddb46dc	0.10706875
168	0xbe9976b2	-0.2997337
169	0xbe9f49fd	-0.31111136
170	0xbdff4d2f	-0.124658935
171	0x3db92a35	0.090412535
172	0x3db499bb	0.08818384
173	0x3e813d19	0.25241926
174	0x3c720867	0.014772511
175	0x3e175496	0.1477836
176	0x3d854b48	0.065084994
177	0xbec24a91	-0.37947515
178	0xbe8e6455	-0.27810922
179	0xbee76c08	-0.4519961
180	0xbe1ddc4c	-0.15416068
181	0x3c9655e5	0.018351505
182	0x3d19d3d7	0.03755554
183	0xbeb7b944	-0.35883534
184	0xbe5c1f7f	-0.2149639
185	0xbd4cd4ec	-0.050007746
186	0xbeb83e4c	-0.3598503
187	0x3ddc2912	0.10750021
188	0x3ea159e9	0.31513909
189	0x3e8433db	0.25820813
190	0x3cfb34df	0.03066486
191	0x3c548e76	0.012973418
192	0x3c1a9ba9	0.009436526
193	0x3d4ada7d	0.049524773
194	0xbeade38f	-0.33962676
195	0x3e0b0304	0.13575369
196	0x3e25c48b	0.16188256
197	0x3e03e752	0.1288121
198	0x3e1c56f8	0.15267551
199	0x3be3ca3f	0.0069516
200	0x3e4c7d8f	0.19969772
201	0xbe1b06ed	-0.1513936
202	0x3d4718a4	0.048607484
203	0xbdf7aa7b	-0.120930634
204	0xbc69f362	-0.014279218
205	0xbcc932a8	-0.024560288
206	0xbbcf0852	-0.0063181305
207	0xbe83378d	-0.2562832
208	0xbe4fb1ec	-0.20282716
209	0xbf249316	-0.64286935
210	0x3e0d1c92	0.1378043
211	0xbcb102dc	-0.021607809
212	0x3ed8e7f7	0.42364475
213	0x3d45f085	0.04832508
214	0x3e97115e	0.29505438
215	0xbe5cac29	-0.21550049
216	0x3c1e6d2e	0.009669585
217	0x3e52af6f	0.20574735
218	0x3e1eac61	0.15495445
219	0xbea04638	-0.31303573
220	0x3d78d809	0.060752902
221	0x3c9c4f55	0.019080797
222	0xbe525736	-0.20541081
223	0xbeec0c58	-0.46103168
224	0xbecd4ab7	-0.40096065
225	0x3c4963bb	0.012291844
226	0xbd23e73e	-0.04001545
227	0x3e981ac3	0.29707918
228	0xbbe14efe	-0.0068758717
229	0x3d50e3a9	0.050998364
230	0x3c3e3d83	0.011611345
231	0xbeb5885a	-0.3545559
232	0xbf00a5d9	-0.50253063
233	0xbf26bbcf	-0.65130323
234	0xbd9cb02a	-0.07650788
235	0xbe336d10	-0.17522073
236	0xbd8e50c3	-0.06948998
237	0xbd0192c5	-0.03163411
238	0xbc9f7c9f	-0.019468604
239	0xbde96545	-0.11396269
240	0x3d869c84	0.06572822
241	0x3dd380f9	0.10327334
242	0x3e1e8363	0.15479808
243	0x3c47c592	0.0121931005
244	0x3e2cc4cb	0.16871946
245	0x3ebcc6d9	0.3687046
246	0xbef5b2c5	-0.47987953
247	0xbea011ff	-0.3126373
248	0xbea6e6a4	-0.3259784
249	0x3e41d0ac	0.18927258
250	0x3e936d94	0.2879454
251	0x3e24727e	0.160593
252	0xbe10d0e7	-0.1414219
253	0x3cd3d728	0.02585943
254	0x3e21cb87	0.15800296
255	0xbe7e66d9	-0.24843921

conv2.bias f4 [16]
0	0x3c426a70	0.011866197
1	0xbe34a8f3	-0.17642574
2	0xbde04bcd	-0.10951958
3	0x3c002717	0.00782182
4	0xbd339d40	-0.043851137
5	0xbdb0fc69	-0.086418934
6	0x3e070135	0.13184054
7	0xbe3a2bfe	-0.18180844
8	0xbe257cc1	-0.16160871
9	0xbe4ce132	-0.2000778
10	0xbd638121	-0.05554307
11	0xbe835502	-0.25650793
12	0xbe779af2	-0.241802
13	0xbc77cb3d	-0.015124139
14	0x3d5c94b3	0.053852748
15	0xbc93120c	-0.017952941

fc1.weight f4 [120, 400]
0	0xbd972886	-0.07380776
1	0x3dd26510	0.102731824
2	0x3eeb063d	0.45903197
3	0x3ef2eac9	0.47444752
4	0x3efc828e	0.49318355
5	0x3de62eb9	0.112393804
6	0x3de011b9	0.1094088
7	0xbec60f07	-0.3868334
8	0x3d89bff9	0.06726069
9	0x3ed43bcb	0.41451868
10	0x3e070306	0.13184747
11	0xbeaaff8e	-0.33398098
12	0xbe225257	-0.15851723
13	0x3d8778d3	0.06614842
14	0xbe753c47	-0.23948775
15	0xbe20f955	-0.15720113
16	0xbe6036b4	-0.21895868
17	0xbdf3f8f8	-0.119127214
18	0xbe9707d4	-0.2949816
19	0xbdb1125b	-0.08646079
20	0x3dbcd688	0.09220606
21	0xbe80413a	-0.25049764
22	0xbe987ec3	-0.29784212
23	0x3e65bc27	0.22435056
24	0x3e3dc51f	0.18532227
25	0x3d23dd66	0.040006064
26	0xbdc502a9	-0.09619648
27	0xbe3271f5	-0.17426284
28	0xbd41dcc8	-0.047329694
29	0x3d7e9c51	0.062160794
30	0xbe8cdbd4	-0.27511466
31	0xbd9a3c83	-0.07531073
32	0x3cc31b73	0.0238168
33	0x3e651c41	0.2237406
34	0x3e4db8bf	0.20090006
35	0xbcd59edf	-0.026076732
36	0xbd515fa0	-0.051116586
37	0xbe3ba80f	-0.18325828
38	0xbde696f0	-0.11259258
39	0x3d027604	0.03185083
40	0x3e6c35cc	0.23067397
41	0x3e7308e6	0.23733863
42	0x3d77e2c3	0.06051899
43	0xbb9375af	-0.004500113
44	0x3da43a8d	0.0801898
45	0xbdf755c4	-0.12076905
46	0x3e273e0d	0.16332264
47	0x3e0c36de	0.13692805
48	0x3d31d301	0.04341412
49	0x3dd6e6b3	0.10493221
50	0xbd17ce8e	-0.03706222
51	0xbc3161b6	-0.010826519
52	0xbc3925ea	-0.011300543
53	0xbbb65681	-0.0055645113
54	0x3db06784	0.08613494
55	0xbdca62b0	-0.098821044
56	0xbc0237aa	-0.007947842
57	0x3d2d7ef7	0.04235741
58	0x3d3a4b70	0.0454821
59	0x3c48968b	0.0122429235
60	0xbd36e2a9	-0.044649754
61	0x3cb923df	0.022600112
62	0xbbe1dbfc	-0.0068926793
63	0xbcc1fe4d	-0.02368083
64	0xbdf02b80	-0.11727047
65	0xbc8ec196	-0.017426293
66	0x39a98a34	0.0003233716
67	0xbb1eb535	-0.0024216895
68	0xbcc8ed92	-0.024527345
69	0xbdd4acc9	-0.10384519
70	0x3d8f004d	0.06982479
71	0x3cb393a0	0.021920979
72	0xbc73d778	-0.014882915
73	0xbcf9b4bc	-0.030481689
74	0xbd469f6f	-0.04849189
75	0x3dae6dda	0.08517046
76	0x3d8f05e0	0.069835424
77	0x3e04296c	0.12906426
78	0x3c5e2611	0.01355888
79	0x3ed0f59a	0.4081238
80	0x3d8f4e56	0.06997363
81	0x3ceef9c9	0.029171841
82	0xbe0fc6c7	-0.14040671
83	0xbc168fad	-0.009189528
84	0x3e9ebf66	0.310054
85	0x3cab9a74	0.020947672
86	0x3db50210	0.08838284
87	0x3e3036f7	0.17208467
88	0x3e8ca6fb	0.27471146
89	0xbdb2d934	-0.087328345
90	0xbd83a4de	-0.0642793
91	0xbda008f2	-0.07814206
92	0x3cd99a18	0.026562735
93	0x3c8960b9	0.016769754
94	0xbeaf324b	-0.34218058
95	0x3d9edf74	0.07757464
96	0x3e1c529a	0.15265885
97	0x3deb8604	0.11500171
98	0x3e2ab15a	0.16669217
99	0xbcfe73e8	-0.031061128
100	0xbdace042	-0.08441211
101	0x3d1dc0c9	0.038513932
102	0x3db099e7	0.086231045
103	0x3e069ee7	0.13146554
104	0x3e820194	0.2539183
105	0x3e2eaa43	0.17057137
106	0xba2c92f8	-0.00065831793
107	0xbeb85d64	-0.3600875
108	0xbddf021c	-0.10889074
109	0x3ebd445f	0.36966226
110	0x3e3cdc09	0.18443312
111	0x3c9dac6e	0.01924726
112	0xbde8694e	-0.1134821
113	0x3db73ae2	0.08946778
114	0x3e81817e	0.25294107
115	0xbd8e92e6	-0.069616124
116	0xbc387328	-0.011257924
117	0xbd53f583	-0.05174781
118	0xbd44e22d	-0.04806726
119	0xbed3ed0f	-0.413918
120	0x3dca5d33	0.098810576
121	0x3e038f62	0.12847665
122	0x3e44a22d	0.1920249
123	0x3e3f2e96	0.18670115
124	0xbded659e	-0.115916476
125	0xbe62a8b5	-0.22134669
126	0xbd59b467	-0.05315056
127	0x3e2772a3	0.16352324
128	0x3eaf8ed4	0.34288657
129	0x3ed0006d	0.40625325
130	0xbc2d3c4b	-0.010573457
131	0x3e205f3b	0.15661328
132	0xbd8e0c25	-0.0693591
133	0x3e92f590	0.28702974
134	0x3f1d7857	0.6151175
135	0x3db5f7f6	0.088851854
136	0xbd683e4d	-0.05670004
137	0xbd8d7f36	-0.06909029
138	0x3d995688	0.07487208
139	0x3e8980fc	0.2685622
140	0xbcddd2d7	-0.027078075
141	0xbddc43a6	-0.107550904
142	0x3d861ced	0.06548486
143	0xbecaa069	-0.39575508
144	0xbf09c0a2	-0.5380956
145	0x3e50d1f8	0.20392597
146	0x3df68318	0.12036723
147	0xbdcc7084	-0.09982398
148	0x3e6887c8	0.22708046
149	0x3e2adf4f	0.16686748
150	0x3e20eff7	0.1571654
151	0x3e4958ab	0.1966273
152	0x3d25e23c	0.040498957
153	0x3ce9f441	0.028558852
154	0x3e690dae	0.22759125
155	0x3e1b24e9	0.15150799
156	0x3e4c4616	0.1994861
157	0xbdbbb4fe	-0.09165381
158	0xbea6e95c	-0.32599914
159	0xbd830456	-0.063973114
160	0xbc5a4cb7	-0.013323954
161	0x3e76320a	0.24042526
162	0x3d0ea603	0.03482629
163	0x3cc8bcdf	0.024504123
164	0x3d5e1232	0.05421657
165	0x3d7642b1	0.060122196
166	0xbdb9d2fc	-0.09073445
167	0xbd15e7bd	-0.036597956
168	0xbe0677c2	-0.13131621
169	0xbe56742f	-0.20942758
170	0x3c223df8	0.00990247
171	0x3d112407	0.03543475
172	0xbd15bea9	-0.03655878
173	0xbe2912fc	-0.16511148
174	0xbe913c7a	-0.28366452
175	0xbc875c4d	-0.016523505
176	0x3ebf9137	0.37415478
177	0x3cb6037d	0.02221846
178	0xbcb01157	-0.021492643
179	0x3b8dd9b3	0.0043289303
180	0x3da0dd2f	0.078546874
181	0xbe2eb828	-0.17062438
182	0x3d2852b8	0.04109451
183	0x3b45194e	0.0030074897
184	0xbe0556cb	-0.1302139
185	0x3e583ba7	0.21116506
186	0xbe1380a0	-0.14404535
187	0xbd4fb09f	-0.05070555
188	0x3dbb5c03	0.09148409
189	0x3d4fe2a8	0.050753266
190	0xbc11dacd	-0.008902264
191	0xbe84294e	-0.25812763
192	0xbe32c9e0	-0.17459822
193	0xbe7578e1	-0.23971893
194	0x3d6820e5	0.056671996
195	0xbd057ee9	-0.032591734
196	0xbe310591	-0.1728728
197	0xbde1ee0c	-0.11031732
198	0xbe356ebe	-0.17718026
199	0xbdff1886	-0.12455849
200	0x3e2ecf93	0.17071371
201	0x3e0214db	0.12703268
202	0x3b8d8ae7	0.004319537
203	0x3da24a0d	0.0792428
204	0x3d3b2988	0.045693904
205	0x3df2dee4	0.11858919
206	0x3e18be30	0.14916301
207	0xbc104867	-0.008806325
208	0x3cf50403	0.02990914
209	0x3e11aaa6	0.14225253
210	0x3e04beb4	0.12963372
211	0x3d9aa9ad	0.07551894
212	0x3d44d205	0.048051853
213	0x3df70800	0.12062073
214	0xba9bdb8f	-0.0011890995
215	0x3d402934	0.046914294
216	0xbe36be88	-0.1784612
217	0xbe234429	-0.1594397
218	0xbdb2f0db	-0.08737346
219	0xbe8b1b27	-0.27169153
220	0xbde057d6	-0.109542534
221	0x3d9d7585	0.07688431
222	0x3e2600ac	0.16211194
223	0x3d25ae67	0.040449526
224	0xbdfcdffc	-0.12347409
225	0x3ee854fd	0.4537734
226	0xbd1a5741	-0.037680868
227	0x3d34c106	0.044129394
228	0x3e3fcc91	0.1873038
229	0x3e8bc8fb	0.27301773
230	0xbd94565a	-0.07243033
231	0xbed79ec2	-0.4211331
232	0xbde54168	-0.11194116
233	0xb99bd4f1	-0.00029722558
234	0x3e00dd91	0.12584521
235	0xbeb69223	-0.35658368
236	0xbdd2f80e	-0.10301219
237	0x3e29387c	0.16525453
238	0xbcfe16f1	-0.031016799
239	0xbedf5988	-0.43622994
240	0xbdb87b99	-0.090079494
241	0xbe08effb	-0.13372795
242	0x3b30c7c3	0.0026974536
243	0x3c84fe5d	0.016234571
244	0xbd0bf707	-0.03417113
245	0xbdc4258a	-0.095774725
246	0xbd70530b	-0.058672946
247	0x3e8625ee	0.26200813
248	0x3e38a641	0.18032171
249	0x3e61a18b	0.2203428
250	0x3b9d9aca	0.004809712
251	0x3d458154	0.04821904
252	0x3d72b424	0.059253827
253	0x3d9091e0	0.070590734
254	0xbd5b2cfd	-0.0535097
255	0xbdac044f	-0.08399259

fc1.bias f4 [120]
0	0xbd056f7a	-0.032577015
1	0x3d024125	0.031800408
2	0xbdb1c8ec	-0.08680901
3	0x3d7c84d4	0.061650112
4	0xbdb73182	-0.0894499
5	0x3c7d16a1	0.01544729
6	0x3e20ed89	0.15715612
7	0xbdd7ac55	-0.105309166
8	0xbc9bed5c	-0.01903408
9	0x3e1c85e2	0.15285447
10	0xbd84da91	-0.06487001
11	0xbdc0df4a	-0.09417589
12	0xbdca1e34	-0.09869042
13	0xbd9e7012	-0.077362195
14	0x3db3ef7e	0.08785914
15	0x3d1a2d9a	0.037641145
16	0xbd59e88f	-0.0532003
17	0x3d8261bb	0.06366297
18	0x3d9de0f5	0.07708923
19	0x3cc531fa	0.024071682
20	0xbd8e32c1	-0.06943274
21	0xbd9942a0	-0.07483411
22	0xbd863847	-0.06553703
23	0xbc738096	-0.0148622
24	0xbe161c73	-0.1465929
25	0x3cbacfc6	0.022804152
26	0xbd89eea6	-0.06734972
27	0xbcfdb465	-0.030969808
28	0xbd4a2358	-0.049350113
29	0xbd6c7350	-0.057727158
30	0x3cb48d37	0.022039993
31	0xbe1319fa	-0.14365378
32	0x3d34b023	0.04411329
33	0xbd206f33	-0.039168548
34	0xbe0b5ba0	-0.13609171
35	0xbd6ee799	-0.058326337
36	0xbcba03d2	-0.0227069
37	0xbe118788	-0.14211857
38	0xbb657949	-0.0035014919
39	0xbd239b49	-0.039943013
40	0x3c4a8c6d	0.012362582
41	0xbc8c3628	-0.017115667
42	0x3e309c4d	0.17247124
43	0xbdda307f	-0.10653781
44	0xbc434e17	-0.011920474
45	0xbe01fb22	-0.12693456
46	0x3db5be51	0.088741906
47	0x3df99375	0.12186328
48	0xbd81f09f	-0.06344723
49	0x3c87645a	0.016527344
50	0xbd64762c	-0.05577676
51	0x3ce86c39	0.028371917
52	0x3d826155	0.06366221
53	0x39c50197	0.00037575953
54	0xbe051a3f	-0.12998293
55	0xbda73eca	-0.08166273
56	0x3caebc6e	0.021330085
57	0xbd764404	-0.06012346
58	0xbe6a0947	-0.22855102
59	0xbdd96b43	-0.10616162
60	0xbd7065f5	-0.058690984
61	0xbdd579de	-0.10423635
62	0x3cadf0e8	0.021233037
63	0x3e66289e	0.22476432
64	0x3da583f5	0.080818094
65	0xbde397ad	-0.11112914
66	0xbd82e975	-0.06392185
67	0x3d93e552	0.07221474
68	0x3c71291b	0.014719273
69	0xbd879882	-0.066208854
70	0xbdd329b8	-0.103106916
71	0xbdd25efa	-0.102720216
72	0x3c56dc07	0.013113982
73	0x3cf23d59	0.029570268
74	0xbdbcbdb7	-0.09215873
75	0x3d8820ae	0.06646858
76	0xbce2fbbd	-0.027707929
77	0xbd08c9aa	-0.033395447
78	0xbcb7da01	-0.02244282
79	0x3d3ffd9e	0.046872728
80	0xbdb60636	-0.088879034
81	0xbd1502ae	-0.03637951
82	0xbd968693	-0.07349887
83	0x3b1b8804	0.0023732195
84	0xbd095d8a	-0.03353647
85	0x3bd36b24	0.006451981
86	0xbd78e4b8	-0.060765
87	0x3c62aec8	0.013835616
88	0x3c25a4f8	0.010110132
89	0x3e7af3a6	0.24507007
90	0xbd859920	-0.06523347
91	0xbd1603cd	-0.03662472
92	0xbd89ea30	-0.06734121
93	0xbdb54a62	-0.08852078
94	0x3d6c8a63	0.057749163
95	0xbe0f3f02	-0.1398888
96	0xbd97797a	-0.07396217
97	0x3d8d1352	0.06888451
98	0xbe1a00cf	-0.15039371
99	0xbcf9d7b3	-0.030498361
100	0xbe1c0b74	-0.15238744
101	0xbda49cdc	-0.08037731
102	0x3c325200	0.010883808
103	0xbc027e2e	-0.007964654
104	0x3e0a66d0	0.13515782
105	0xbd03ed0a	-0.03220848
106	0xbd63710c	-0.05552773
107	0xbe5e8553	-0.21730547
108	0xbdd53e30	-0.10412252
109	0xbd345086	-0.044022106
110	0x3e35a65f	0.17739247
111	0xbd3b7603	-0.04576684
112	0xbe359450	-0.17732358
113	0xbe2c39d2	-0.16818932
114	0x3d647159	0.05577216
115	0xbd3b253e	-0.045689814
116	0x3d058cb8	0.032604903
117	0x3c9015dd	0.01758855
118	0x3cd1e13d	0.025620097
119	0xbda09a90	-0.078419805

fc2.weight f4 [84, 120]
0	0xbde4e1f2	-0.11175908
1	0x3e495680	0.19661903
2	0x3e236035	0.15954669
3	0x3ea7e717	0.32793495
4	0x3ceee62a	0.029162485
5	0x3dd86cfb	0.105676614
6	0xbd8d0118	-0.06884974
7	0x3e2f9f05	0.17150505
8	0xbd43bb17	-0.047785845
9	0x3d126633	0.035741996
10	0x3e36c07d	0.17846866
11	0xbd954a27	-0.07289534
12	0x3e29ca99	0.16581191
13	0xbe19ccd2	-0.15019539
14	0xbe22776b	-0.15865867
15	0x3e21266f	0.15737318
16	0x3dbffc31	0.093742736
17	0xbe50ab46	-0.20377836
18	0xbe5ae7e1	-0.21377517
19	0xbd971c1d	-0.07378409
20	0xbe0d2a5b	-0.13785689
21	0x3e7474dd	0.23872705
22	0xbc3291a3	-0.01089898
23	0x3ef0e8cc	0.4705261
24	0x3d3e695c	0.046487197
25	0xbd18b4ec	-0.037281916
26	0xbd805247	-0.06265693
27	0xbe51c53f	-0.204854
28	0xbe397b9c	-0.1811356
29	0x3e31bca4	0.17357117
30	0xbd1be8c5	-0.038063783
31	0xbc98eaee	-0.01866671
32	0x3e0ee5c8	0.13954842
33	0xba79325b	-0.00095061
34	0x3cc53ae9	0.024075942
35	0x3dda8fc1	0.1067195
36	0xbe60afcb	-0.2194206
37	0x3de58874	0.11207667
38	0xbe895796	-0.26824635
39	0x3bf5b790	0.007498689
40	0x3da82c37	0.08211558
41	0xbc53c03a	-0.012924248
42	0x3d806f12	0.06271185
43	0x3d995050	0.074860215
44	0x3c067db7	0.008208684
45	0x3d337a11	0.043817583
46	0xbe0be104	-0.13660055
47	0xbe0288f4	-0.12747556
48	0x3c9258f3	0.01786468
49	0xbe7ecd77	-0.24883066
50	0x3e377a96	0.17917857
51	0xbe2e367f	-0.17012976
52	0x3db2cbd3	0.08730283
53	0xbe3ffe46	-0.18749341
54	0xbdcf9e25	-0.101375856
55	0xbdbcf9a0	-0.092273
56	0xbe462649	-0.19350542
57	0xbe2a26ca	-0.1661636
58	0x3e1fd338	0.15607917
59	0x3e167d1c	0.14696163
60	0x3d7901ee	0.060792856
61	0xbdcca4e0	-0.09992385
62	0xba9ae71f	-0.0011818147
63	0x3e9982ef	0.29982707
64	0xbdcea508	-0.10090071
65	0x3e5978a2	0.21237424
66	0x3e85c24e	0.26124805
67	0x3d8b17ba	0.06791635
68	0xbd4e4735	-0.050360877
69	0x3c9ab454	0.018884815
70	0x3cad34d4	0.021143354
71	0x3944a10b	0.0001875201
72	0xbd29fe3e	-0.04150223
73	0xbe6e94aa	-0.23298898
74	0xbcb8f9ac	-0.02257999
75	0xb835fa60	-4.3386943e-05
76	0x3c5c340e	0.013440145
77	0x3e4e238f	0.20130752
78	0xbd66c295	-0.05633791
79	0xbd6c0832	-0.057625003
80	0xbe0000c7	-0.12500297
81	0x3e1552ae	0.14582321
82	0x3ca0204b	0.019546648
83	0x3d8a2eb2	0.06747188
84	0x3d82dd16	0.06389825
85	0x3c5c1829	0.013433495
86	0x3d897506	0.067117736
87	0x3d9fe3ad	0.078070976
88	0xbe18bf72	-0.1491678
89	0x3c6b129b	0.014347698
90	0xbdb4e7ef	-0.088333
91	0xbe50ebea	-0.20402494
92	0xbda33190	-0.07968438
93	0xbd8a0ee6	-0.06741123
94	0x3d939ee2	0.07208039
95	0x3e05d98d	0.1307127
96	0x3e012a14	0.12613708
97	0xbdb6dba5	-0.089286126
98	0xbe3471ec	-0.17621583
99	0x3e6774e3	0.22603182
100	0xbd97b5be	-0.074077114
101	0x3df3970b	0.118940435
102	0xbd288126	-0.04113879
103	0x3c473f6e	0.012161119
104	0x3dc3c28a	0.0955859
105	0x3e108d8f	0.141165
106	0x3d007956	0.031365715
107	0xbcfcb590	-0.030848294
108	0xbe159ce8	-0.14610636
109	0x3d715cab	0.058926266
110	0x3c919ad9	0.017774032
111	0xb8b593e3	-8.6582986e-05
112	0xbe5405a3	-0.20705275
113	0xbd326a38	-0.04355833
114	0x3de0bad8	0.109731376
115	0x3d494b0b	0.049143832
116	0x3eb344df	0.35013482
117	0x3e442ac1	0.19156934
118	0x3dfbe5b5	0.122996725
119	0x3cf9c96c	0.030491553
120	0xbc0f244b	-0.00873668
121	0x3e574635	0.21022876
122	0xbe808a7a	-0.2510565
123	0x3c985005	0.018592844
124	0xbe83c528	-0.25736356
125	0xbc32989a	-0.010900641
126	0xbe248a2f	-0.16068338
127	0xbd0d51b1	-0.034501735
128	0x3cc5f5d3	0.02416507
129	0xbe626d40	-0.22111988
130	0x3e59bc92	0.2126334
131	0xbdfcc67c	-0.123425454
132	0x3dacd57f	0.08439159
133	0xbd5a94ec	-0.05336468
134	0x3cc3cbf4	0.023900963
135	0x3aefb6e7	0.0018288762
136	0x3c8f8d9b	0.017523577
137	0x3e340627	0.17580472
138	0xbe277763	-0.16354136
139	0x3d687ed7	0.05676159
140	0x3de883eb	0.11353286
141	0x3d76f9bf	0.06029677
142	0x3dc22144	0.09479001
143	0x3e0a9aee	0.13535663
144	0x3e148320	0.14503145
145	0xbda7ce8c	-0.081936926
146	0x3e09738b	0.13422982
147	0xbb9a7770	-0.004713945
148	0xbcfd29ea	-0.030903775
149	0xbd1eca0f	-0.038766917
150	0xbd559778	-0.052146405
151	0x3d10a7f1	0.03531641
152	0xbd1d4744	-0.038398042
153	0xbd2ca545	-0.0421498
154	0xbd54620a	-0.05185131
155	0xbd53f50b	-0.051747363
156	0xbe80e0f8	-0.25171638
157	0xbe02f917	-0.12790333
158	0xbe103a28	-0.14084685
159	0xbea37ec6	-0.31932658
160	0xbd364bd6	-0.044505917
161	0xbd83c4c1	-0.06434012
162	0xbe205256	-0.15656409
163	0x3eb63006	0.35583514
164	0xbd9f80cd	-0.07788239
165	0xbe14ac22	-0.14518788
166	0xbe43f8ab	-0.19137828
167	0x3b828afa	0.0039838525
168	0x3d3a66bd	0.045508135
169	0x3e3bc39e	0.18336341
170	0x3dfc34bf	0.12314748
171	0xbe4c6646	-0.19960889
172	0xbd49429f	-0.0491358
173	0x3c9882ca	0.018617053
174	0x3db016d7	0.08598106
175	0x3e7dc003	0.24780278
176	0xbe141968	-0.14462817
177	0x3df0e886	0.117631
178	0xbe45ae2a	-0.1930472
179	0xbcd669f4	-0.02617357
180	0x3e99e6aa	0.30058795
181	0xbd66d0c5	-0.056351442
182	0xbd9d1c54	-0.07671419
183	0xbde022d8	-0.10944146
184	0xbd60085e	-0.05469548
185	0xbd9dadf4	-0.076991946
186	0x3e29efff	0.16595457
187	0xbdbe24bc	-0.0928435
188	0x3c6d8955	0.014498075
189	0x3e8959ac	0.26826227
190	0x3c9ba749	0.019000666
191	0x3dd66507	0.10468488
192	0xbb8e314c	-0.0043393727
193	0xbe21395c	-0.15744537
194	0x3d9e7eaf	0.07739007
195	0xbe2dd8ad	-0.16977187
196	0x3dbdea9a	0.09273262
197	0x3dc471b0	0.09591997
198	0x3ca1af15	0.019736806
199	0xbc7cd358	-0.015431248
200	0x3d160422	0.036625035
201	0xbd425bca	-0.047450818
202	0xbd557871	-0.052116815
203	0x3b62a5f3	0.0034583777
204	0xbc468c82	-0.012118461
205	0xbd9d081d	-0.07667563
206	0x3d62a7cb	0.0553358
207	0xbdbdedfd	-0.09273908
208	0xbe3cc1af	-0.1843326
209	0x3d29b0c8	0.041428357
210	0xbc193709	-0.0093515
211	0xbe0b41c8	-0.13599312
212	0x3da185a8	0.07886821
213	0xbe698a10	-0.22806573
214	0x3d135fa4	0.035979882
215	0xbd94c799	-0.07264633
216	0x3dce6a73	0.10078897
217	0xbe4085e2	-0.18801072
218	0xbe34e028	-0.17663634
219	0x3db17a3f	0.08665895
220	0xbe0592be	-0.13044259
221	0x3cd5673f	0.026050208
222	0xbd4d4743	-0.05011679
223	0xbe00dd51	-0.12584426
224	0xbde1f0e7	-0.110322766
225	0xbe5637e5	-0.2091976
226	0xbd204a73	-0.0391335
227	0xbc7b1791	-0.015325443
228	0x3dc680c1	0.096925266
229	0x3d4f9b62	0.050685294
230	0xbe5ed39a	-0.21760407
231	0x3d93a73f	0.07209634
232	0xbccaf8a5	-0.024776766
233	0x3d9914fe	0.07474707
234	0xbcb69136	-0.022286039
235	0x3cfe1d9a	0.031019974
236	0x3e58a404	0.21156317
237	0x3d59ee3d	0.053205717
238	0x3de7f8be	0.11326741
239	0x3de167d7	0.11006134
240	0x3c764648	0.015031405
241	0xbda441cb	-0.080203615
242	0xbebdfd39	-0.37107256
243	0x3e8cba06	0.27485675
244	0xbcb861fa	-0.022507656
245	0x3d86b0f0	0.06576717
246	0x3e16667e	0.14687535
247	0xbd9b0738	-0.07569736
248	0xbcf5ae7f	-0.029990433
249	0x3e191f42	0.1495333
250	0xbdde3ea6	-0.10851793
251	0xbebf2f05	-0.3734056
252	0x3daf0f05	0.085477866
253	0x3d63f491	0.05565316
254	0x3e7c8284	0.24659163
255	0x3c73b699	0.014875078

fc2.bias f4 [84]
0	0xbd729455	-0.05922349
1	0xbc95ec4e	-0.018301155
2	0x3d2b44d7	0.041813698
3	0x3d8e62f3	0.06952467
4	0xbb18f0cc	-0.0023336885
5	0x3d831ab3	0.06401577
6	0xbd5d6014	-0.054046705
7	0x3e45027a	0.19239226
8	0x3db0124d	0.085972406
9	0xbcd8aae2	-0.02644867
10	0xbcee9953	-0.029125845
11	0x3e06f02e	0.13177559
12	0x3dfd6775	0.123732485
13	0x3e1cb86f	0.15304731
14	0xbd7bb54d	-0.0614522
15	0xbb26b19e	-0.0025435458
16	0xbb9eeeb5	-0.0048502334
17	0x3e0ed5a8	0.13948691
18	0xbe1ae12e	-0.15124962
19	0x3d024bf0	0.0318107
20	0xbe2911b0	-0.16510653
21	0xbe1ec457	-0.15504585
22	0xbe61da25	-0.22055872
23	0x3d1ef4b9	0.038807604
24	0xbe0ad6c0	-0.13558483
25	0xbd6db530	-0.058034122
26	0x3d9e935c	0.0774295
27	0x3e8cb876	0.27484483
28	0xbd319eb8	-0.043364257
29	0x3bbcba8c	0.005759543
30	0x3de629d8	0.1123845
31	0x3d84dce1	0.06487442
32	0x3e52f197	0.20599972
33	0xbd0e276b	-0.03470556
34	0x3db885bc	0.09009883
35	0x3e40a21b	0.18811838
36	0xbe0b3f56	-0.1359838
37	0x3d94f79b	0.072737895
38	0xbdbbbc60	-0.09166789
39	0xbdb81006	-0.08987431
40	0x3e16020d	0.1464922
41	0xbcbe18f6	-0.023205262
42	0x3de298f6	0.11064331
43	0x3d7ce8bc	0.06174539
44	0x3dc23101	0.09482003
45	0x3da20ed8	0.079129875
46	0xbdaabebd	-0.08337162
47	0x3dafe666	0.08588867
48	0x3daec7e8	0.08534223
49	0xbb3c34ed	-0.002871807
50	0xbdfe4f91	-0.1241752
51	0x3dda7619	0.106670566
52	0xbe6330e2	-0.22186616
53	0xbdc46731	-0.09589995
54	0xbcbd9782	-0.023143534
55	0xbe1f4a8a	-0.15555778
56	0xbd9a11cd	-0.075229265
57	0xbdcfdf01	-0.101499565
58	0xbe2b4f77	-0.16729532
59	0xbd24e96c	-0.04026167
60	0x3c51570d	0.012777102
61	0xbde49d4a	-0.11162813
62	0xbe53cf14	-0.20684463
63	0xbc3e9392	-0.011631863
64	0xbe58913b	-0.21149151
65	0xbd7db349	-0.061938558
66	0xbba45ea1	-0.0050161635
67	0xbe11c616	-0.1423572
68	0xbdbd295c	-0.09236404
69	0xbdc1d378	-0.094641626
70	0xbe31166b	-0.17293708
71	0x3e817aff	0.2528915
72	0x3dc0af1e	0.09408401
73	0xbcbd80f4	-0.023132779
74	0x3deafd99	0.11474151
75	0x3d1a5634	0.037679866
76	0xbac89f56	-0.0015306275
77	0xbd5b331b	-0.053515535
78	0x3c9935cf	0.018702416
79	0xbd24d40b	-0.040241282
80	0xbda3549d	-0.07975123
81	0xbe0ec1e9	-0.13941158
82	0x3dce81f9	0.10083384
83	0x3d66bcef	0.056332525

fc3.weight f4 [10, 84]
0	0xbde9399f	-0.113879435
1	0x3d9ebe64	0.07751158
2	0x3dc55412	0.09635176
3	0xbf20a050	-0.6274462
4	0x3dffb75b	0.12486144
5	0xbe58c17d	-0.2116756
6	0xbd9b538d	-0.075842954
7	0xbed0c1e8	-0.4077294
8	0xbef15a1d	-0.47139063
9	0x3e2be6ba	0.16787234
10	0xbefb4679	-0.49077204
11	0xbda7e4b2	-0.08197917
12	0xbe93cc3f	-0.28866765
13	0x3d9b0e2d	0.07571063
14	0xbda2cf96	-0.0794975
15	0xbe717af4	-0.23582059
16	0xbeee4af1	-0.4654155
17	0xbe1d7749	-0.15377535
18	0x3ce1df84	0.0275724
19	0xbedbd970	-0.4293933
20	0xbe87b265	-0.26503292
21	0xbe4e45c2	-0.20143798
22	0xbcf46ffa	-0.02983855
23	0x3dc3951f	0.09549927
24	0xbe3f2d5c	-0.18669647
25	0xbd59a091	-0.053131644
26	0xbeddd0a1	-0.43323234
27	0xbdfdb323	-0.12387683
28	0x3cb2f462	0.021845046
29	0x3de0b4ac	0.109719604
30	0x3d19477e	0.037421696
31	0x3e4e7381	0.20161249
32	0x3e5a1faf	0.21301149
33	0xbeb4044a	-0.35159522
34	0xbea3c88f	-0.31988952
35	0x3e6cb566	0.23116073
36	0x3d047726	0.03234019
37	0x3e462128	0.19348586
38	0xbc240032	-0.010009812
39	0x3d33f2b0	0.043932617
40	0xbdbcd772	-0.092207804
41	0x3e2ec134	0.17065889
42	0x3e8cf829	0.2753308
43	0xbe4e4151	-0.20142104
44	0xbe4d6c7b	-0.20060913
45	0xbdf932a0	-0.12167859
46	0xbeb70b66	-0.35750884
47	0xbe98d5d2	-0.29850632
48	0xbecb758a	-0.39738113
49	0xbe467bd7	-0.19383179
50	0xbe32bc92	-0.17454746
51	0xbd06f352	-0.032946892
52	0xbdf9e2ef	-0.12201487
53	0xbd83af61	-0.06429935
54	0xbe49a6ba	-0.19692507
55	0xbe2bc357	-0.16773735
56	0x3b413b5b	0.0029484842
57	0xbe543ed1	-0.20727088
58	0xbd9d900f	-0.076934926
59	0xbe67877a	-0.22610274
60	0xbdaa5d16	-0.08318536
61	0x3dda3895	0.106553234
62	0x3cb9be30	0.022673696
63	0xbe925163	-0.28577718
64	0xbd570763	-0.05249728
65	0x3e691b9e	0.22764441
66	0xbe76d2d7	-0.24103867
67	0x3d4f2bbc	0.050578818
68	0xbf05ce3b	-0.5226781
69	0xbe924c41	-0.28573802
70	0x3dc22d92	0.09481348
71	0xbec41d5c	-0.3830365
72	0xbdcee66e	-0.10102545
73	0x3d3225a4	0.04349293
74	0xbe9911ca	-0.29896384
75	0x3d05da83	0.032679092
76	0xbceab7d0	-0.028652102
77	0x3c040526	0.008057868
78	0x3e0a8bc5	0.1352988
79	0x3e01c8ad	0.12674208
80	0xbd679e3b	-0.056547385
81	0x3cab2c3c	0.020895116
82	0x3df93ee3	0.12170198
83	0xbdf5cb4a	-0.12001665
84	0x3e23c679	0.1599368
85	0xbf065a5a	-0.52481616
86	0x3e4aaba2	0.19792035
87	0x3de3aabf	0.111165516
88	0xbef5a90b	-0.47980532
89	0xbc5efa98	-0.013609551
90	0xbd21c0f6	-0.039490663
91	0xbeb884fd	-0.36038962
92	0x3dac5d5b	0.08416244
93	0x3ad18cdc	0.0015987414
94	0x3e75ec89	0.24016012
95	0xbea46fc3	-0.32116517
96	0x3d018131	0.031617347
97	0xba88adc1	-0.0010427759
98	0xbe6ee839	-0.23330773
99	0xbe5de086	-0.2166768
100	0x3e495629	0.19661774
101	0x3e6a352e	0.22871849
102	0xbe8dd9ae	-0.2770514
103	0x3dc298f9	0.095018335
104	0xba576b20	-0.0008217562
105	0x3e062b61	0.13102485
106	0xbd891447	-0.06693321
107	0xbf05f99f	-0.52334017
108	0xbcbb49d1	-0.022862347
109	0xbee6e1ef	-0.4509425
110	0x3d4c188d	0.0498281
111	0x3dd42a63	0.10359647
112	0xbea0005b	-0.3125027
113	0xbe9b41df	-0.30323693
114	0xbf0dbd4f	-0.55366987
115	0xbe1589a0	-0.14603281
116	0x3c40f526	0.011777198
117	0xbd914105	-0.070924796
118	0x3b9a5007	0.004709247
119	0x3e558454	0.2085126
120	0x3d993e0f	0.0748254
121	0xbe963263	-0.29335317
122	0x396c3fe7	0.0002253052
123	0x3c02f88a	0.007993827
124	0xbeb9df93	-0.36303386
125	0xbe31988b	-0.17343347
126	0x3dd262d1	0.10272754
127	0x3e33ac7b	0.17546265
128	0xbe5ecc4d	-0.21757622
129	0xbe2e5834	-0.17025834
130	0x3cf8134c	0.030282639
131	0x3dd3b314	0.10336891
132	0x3e2f3871	0.17111374
133	0x3d9c6017	0.07635515
134	0xbee12184	-0.43970883
135	0x3c2da0dc	0.010597434
136	0xbea5b634	-0.32365572
137	0xbeabfdb1	-0.3359199
138	0x3d2e6de7	0.04258528
139	0xbe8358ff	-0.25653836
140	0xbddfe207	-0.10931783
141	0xbed3b5fc	-0.4134978
142	0xbea5c7b1	-0.32378915
143	0x3e085ea9	0.1331736
144	0xbbd59dde	-0.0065190634
145	0xbd2fef46	-0.0429528
146	0xbe49cb54	-0.1970647
147	0x3e3b201f	0.18273972
148	0xbde74d5c	-0.11294052
149	0x3eb2a009	0.34887722
150	0x3d59f41e	0.053211324
151	0x3c24fc8c	0.0100699775
152	0x3dc01f6d	0.09380994
153	0xbcb8bc41	-0.022550704
154	0xbeb59064	-0.35461724
155	0x3d19b6b3	0.03752775
156	0x3e2f8a65	0.17142637
157	0x3e15f474	0.14644033
158	0xbe6f5601	-0.23372652
159	0xbf176ae6	-0.5914749
160	0xbdc35c5b	-0.095391
161	0xbf108424	-0.5645163
162	0xbe7cc2c0	-0.24683666
163	0xbf0f5590	-0.55989933
164	0xbd4b55de	-0.049642436
165	0xbee9a8b4	-0.45636523
166	0xbe923b1f	-0.2856073
167	0xbe820f42	-0.25402266
168	0x3dd934e1	0.10605789
169	0x3c8cc38a	0.017183084
170	0xbc2b65cf	-0.010461285
171	0xbedc6b1c	-0.43050468
172	0x3de3c108	0.11120802
173	0x3dd3ab64	0.103354245
174	0x3d4159e9	0.047204886
175	0xbed4bf16	-0.41552037
176	0xbe491c42	-0.19639686
177	0xbdc03235	-0.09384576
178	0xbcc3925e	-0.023873504
179	0xbea8da79	-0.3297918
180	0x3e156d6e	0.14592525
181	0xbf0a0feb	-0.5393054
182	0x3d0e406b	0.034729403
183	0xbdf83cad	-0.12120948
184	0xbe6b1819	-0.22958411
185	0xbf020389	-0.50786644
186	0xbf0ae128	-0.5424981
187	0x3e5c7825	0.21530207
188	0xbe30949a	-0.17244187
189	0x3e267a53	0.162576
190	0xbeac4cd5	-0.33652368
191	0x3dbc907c	0.09207246
192	0xbc02cd33	-0.007983494
193	0x3e36f4d0	0.17866826
194	0x3dfaef52	0.12252678
195	0xbe71957b	-0.23592179
196	0x3c95a590	0.018267423
197	0x3cbd3eab	0.023101171
198	0x3d603539	0.054738257
199	0x3d5d62f4	0.054049447
200	0x3e2d1fff	0.16906737
201	0xbee2ec04	-0.4432069
202	0x3dcaefd0	0.09909022
203	0xbe9a580b	-0.30145296
204	0xbec6ca9f	-0.38826463
205	0x3e81ae8e	0.25328487
206	0x3d018305	0.03161909
207	0xbd52d26c	-0.051470205
208	0xbe141b81	-0.14463617
209	0x3e1f4939	0.15555276
210	0xbe441dc8	-0.19151986
211	0xbe4bc3ae	-0.19898865
212	0xbdfc59d4	-0.12321821
213	0xbdbf0bc2	-0.093284145
214	0x3d9b7b6b	0.075918995
215	0x3dd2ef8d	0.10299597
216	0xbe8fe600	-0.28105164
217	0x3d89096e	0.06691252
218	0xbe7fe2ed	-0.24988909
219	0x3e7381af	0.23779939
220	0xbdb95d1d	-0.09050963
221	0xbe9ce9b8	-0.30647063
222	0xbe42d80e	-0.19027731
223	0xbd8be10e	-0.06830035
224	0xbaa87397	-0.0012851831
225	0xbd92fbcc	-0.07176933
226	0x3e133bce	0.14378282
227	0x3e9cc819	0.30621412
228	0xbe3fc055	-0.18725713
229	0xbe145565	-0.144857
230	0xbe02d442	-0.12776282
231	0x3e3a318d	0.18182965
232	0xbe8ac9ae	-0.27106994
233	0xbeb18aa0	-0.34676075
234	0xbe5da3d1	-0.21644522
235	0xbee52618	-0.44755626
236	0xbddc6f77	-0.10763448
237	0xbe4e77bb	-0.20162861
238	0x3da7de90	0.08196747
239	0xbd157356	-0.036486946
240	0xbe8a7800	-0.27044678
241	0xbe1466d1	-0.14492346
242	0xbdf29b1d	-0.11845992
243	0xbe262eb6	-0.16228756
244	0x3de3db33	0.11125793
245	0x3d4a28c0	0.04935527
246	0xbc3a4a3b	-0.011370237
247	0xbe951a13	-0.29121456
248	0xbf03421a	-0.5127274
249	0x3d124c23	0.03571714
250	0xbd3a95dc	-0.045553073
251	0x3db53cdc	0.08849499
252	0xbe00bfcc	-0.12573165
253	0x3da99916	0.08281152
254	0xbea17e26	-0.31541556
255	0xbe15fde4	-0.14647633

fc3.bias f4 [10]
0	0x3cdc5db5	0.026900152
1	0xbd844ac9	-0.06459577
2	0x3d8c5140	0.06851435
3	0x3998bb42	0.00029131217
4	0x3d3cdeef	0.046111044
5	0xbe292364	-0.16517407
6	0xbd539048	-0.05165127
7	0xbdb4b7d1	-0.08824123
8	0x3e3f5779	0.18685712
9	0xbdb390dd	-0.08767865
